{
  "num_trajectories": 10,
  "num_steps": 100,
  "state_shape": [
    100,
    1,
    1,
    28,
    28
  ],
  "model_info": "ImageFlowMatcher(\n  (model): UNet(\n    (time_mlp1): Sequential(\n      (0): SinusoidalPositionEmbeddings(\n        (embedding_l): Linear(in_features=3, out_features=32, bias=True)\n      )\n      (1): Linear(in_features=32, out_features=32, bias=True)\n      (2): SiLU()\n      (3): Linear(in_features=32, out_features=32, bias=True)\n    )\n    (time_mlp2): Sequential(\n      (0): SinusoidalPositionEmbeddings(\n        (embedding_l): Linear(in_features=3, out_features=32, bias=True)\n      )\n      (1): Linear(in_features=32, out_features=64, bias=True)\n      (2): SiLU()\n      (3): Linear(in_features=64, out_features=64, bias=True)\n    )\n    (time_mlp3): Sequential(\n      (0): SinusoidalPositionEmbeddings(\n        (embedding_l): Linear(in_features=3, out_features=32, bias=True)\n      )\n      (1): Linear(in_features=32, out_features=128, bias=True)\n      (2): SiLU()\n      (3): Linear(in_features=128, out_features=128, bias=True)\n    )\n    (conv1): DoubleConv(\n      (double_conv): Sequential(\n        (0): Conv2d(1, 32, kernel_size=(3, 3), stride=(1, 1), padding=(1, 1))\n        (1): SiLU(inplace=True)\n        (2): Conv2d(32, 32, kernel_size=(3, 3), stride=(1, 1), padding=(1, 1))\n        (3): SiLU(inplace=True)\n      )\n    )\n    (pool1): MaxPool2d(kernel_size=2, stride=2, padding=0, dilation=1, ceil_mode=False)\n    (conv2): DoubleConv(\n      (double_conv): Sequential(\n        (0): Conv2d(32, 64, kernel_size=(3, 3), stride=(1, 1), padding=(1, 1))\n        (1): SiLU(inplace=True)\n        (2): Conv2d(64, 64, kernel_size=(3, 3), stride=(1, 1), padding=(1, 1))\n        (3): SiLU(inplace=True)\n      )\n    )\n    (pool2): MaxPool2d(kernel_size=2, stride=2, padding=0, dilation=1, ceil_mode=False)\n    (conv3): DoubleConv(\n      (double_conv): Sequential(\n        (0): Conv2d(64, 128, kernel_size=(3, 3), stride=(1, 1), padding=(1, 1))\n        (1): SiLU(inplace=True)\n        (2): Conv2d(128, 128, kernel_size=(3, 3), stride=(1, 1), padding=(1, 1))\n        (3): SiLU(inplace=True)\n      )\n    )\n    (pool3): MaxPool2d(kernel_size=2, stride=2, padding=0, dilation=1, ceil_mode=False)\n    (conv4): DoubleConv(\n      (double_conv): Sequential(\n        (0): Conv2d(128, 256, kernel_size=(3, 3), stride=(1, 1), padding=(1, 1))\n        (1): SiLU(inplace=True)\n        (2): Conv2d(256, 256, kernel_size=(3, 3), stride=(1, 1), padding=(1, 1))\n        (3): SiLU(inplace=True)\n      )\n    )\n    (upconv3): ConvTranspose2d(256, 128, kernel_size=(2, 2), stride=(2, 2))\n    (conv5): DoubleConv(\n      (double_conv): Sequential(\n        (0): Conv2d(384, 128, kernel_size=(3, 3), stride=(1, 1), padding=(1, 1))\n        (1): SiLU(inplace=True)\n        (2): Conv2d(128, 128, kernel_size=(3, 3), stride=(1, 1), padding=(1, 1))\n        (3): SiLU(inplace=True)\n      )\n    )\n    (upconv2): ConvTranspose2d(128, 64, kernel_size=(2, 2), stride=(2, 2))\n    (conv6): DoubleConv(\n      (double_conv): Sequential(\n        (0): Conv2d(192, 64, kernel_size=(3, 3), stride=(1, 1), padding=(1, 1))\n        (1): SiLU(inplace=True)\n        (2): Conv2d(64, 64, kernel_size=(3, 3), stride=(1, 1), padding=(1, 1))\n        (3): SiLU(inplace=True)\n      )\n    )\n    (upconv1): ConvTranspose2d(64, 32, kernel_size=(2, 2), stride=(2, 2))\n    (conv7): DoubleConv(\n      (double_conv): Sequential(\n        (0): Conv2d(96, 32, kernel_size=(3, 3), stride=(1, 1), padding=(1, 1))\n        (1): SiLU(inplace=True)\n        (2): Conv2d(32, 32, kernel_size=(3, 3), stride=(1, 1), padding=(1, 1))\n        (3): SiLU(inplace=True)\n      )\n    )\n    (final_conv): Conv2d(32, 1, kernel_size=(1, 1), stride=(1, 1))\n  )\n  (criterion): MSELoss()\n)"
}